models/vae_model_nsl_kdd.pth (torch, 36292 bytes, 10 tensors)

fc1.weight f4 [64, 38]
0.04970678 0.08016153 -0.010842797 -0.35015258 0.10869222 -0.1127774 0.060243353 -0.16797195
-0.08807526 -0.00094460836 0.0015624672 -0.09045247 0.09787646 -0.06793303 0.04955517 -0.03979328
0.0043371767 -0.026187398 -0.017512389 -0.09017858 -0.06403804 0.029710269 -0.09839276 1.1704077e-05
-0.16334237 -0.07731559 -0.057573047 -0.09554933 -0.108415835 -0.100788936 -0.023132084 -0.07712558
0.028263178 -0.23318309 0.013072192 0.08277008 -0.10439956 -0.05262123 0.040180713 0.274083
0.36909544 0.017079458 -0.028782645 0.47551215 0.06727087 0.37196958 0.11027021 -0.10013217
0.09176761 0.18539204 -0.060247153 0.53783035 0.094015844 -0.2420112 -0.023210868 -0.15378936
0.19969457 -0.028624788 -0.060181648 -0.22323334 -0.32589975 -0.5524035 -0.7317072 -0.057249576
-0.99917364 0.13056657 -0.13200387 0.09017276 0.23302782 -0.11311775 0.19085433 -0.018961912
-0.7254906 -0.7355527 -0.83953273 -0.3417368 -0.18941681 0.07139942 0.063946694 -0.11404065
-0.010163376 0.2533968 0.043341197 0.13737899 -0.24425203 0.25598177 0.021695131 0.06433676
-0.0066902824 0.12388472 -0.14025483 0.03792612 -0.098061524 -0.023490056 0.094334304 0.038646515
0.093381025 0.3062683 0.22510709 -0.025000783 0.10659834 -0.03284108 0.0090507595 -0.042739704
-0.08822049 0.008365802 -0.055826165 0.13457583 -0.19565687 -0.082014345 0.3205195 0.12719738
-0.18914877 -0.21769515 -0.12954515 -0.14167231 -0.24526535 -0.31941304 -0.22449219 -0.3009752
0.035014767 0.06469496 0.012175608 -0.07792153 -0.30917495 -0.15932246 -0.10763151 -0.12704608
-0.2786116 -0.23089346 0.12981395 -0.0439987 0.015394222 -0.13440125 -0.06206947 -0.21209969
-0.16679475 0.042094804 -0.11899816 0.003667372 -0.10723471 -0.27295628 -0.3025991 -0.19178034
-0.075711206 -0.05110743 0.011452569 -0.25074178 0.088242576 0.048969284 -0.22917545 -0.068122536
-0.044410367 0.13550305 0.057561744 -0.08267573 -0.050511252 -0.054496683 -0.28871414 0.045314692
-0.06190904 0.045906052 -0.13143776 0.029949166 -0.16166474 0.15697847 0.1755089 -0.22374444
-0.14840221 -0.15439203 -0.07818593 0.095670134 -0.05756703 0.28726208 0.14188498 0.15221085
0.20504177 -0.06331816 0.0879801 -0.03732152 0.018423188 -0.06578541 -0.020999763 -0.116587825
-0.08697649 -0.05237622 0.15632766 0.17959802 0.019782355 0.16619076 -0.03943904 -0.13338438
0.11209018 -0.23496568 -0.08861647 -0.20862083 -0.31362894 -0.08685937 -0.36707363 -0.03378894
-0.03650023 -0.16582376 0.003326375 -0.08876621 0.0022501168 -0.120928206 0.13554327 0.018165018
-0.19310977 -0.157651 -0.16530557 -0.040609952 0.03996761 0.058939897 -0.065112956 -0.05328438
-0.1356517 -0.12399056 -0.10338593 -0.19127774 -0.18651254 -0.1859456 -0.1957507 -0.02431384
-0.056942686 0.030140016 -0.232463 0.093434826 0.097786695 -0.042811345 0.1541124 -0.14863707
-0.021223022 0.20664923 -0.08513166 0.2387713 -0.26019055 -0.22841014 -0.14017539 0.10040533
0.058155466 -0.24304412 -0.10934936 -0.18492036 -0.07493222 -0.12681675 0.08934789 -0.10893464
-0.08131151 0.016581763 0.033795774 0.018830368 -0.062054135 0.04864299 -0.054535635 -0.09691478
00000000: 5699 4b3d ba2b a43d fda5 31bc 3347 b3be
00000010: 079a de3d d6f7 e6bd bcc1 763d d700 2cbe
00000020: cd60 b4bd 989f 77ba b3cb cc3a 253f b9bd
00000030: 7473 c83d 7920 8bbd 5dfa 4a3d 47fe 22bd
00000040: e01e 8e3b f486 d6bc 2476 8fbc 8caf b8bd
00000050: 6026 83bd f362 f33c 2582 c9bd a15c 4437
00000060: 3943 27be a357 9ebd b7d1 6bbd 5eaf c3bd
00000070: 1f09 debd 6e6a cebd 7f7f bdbc 04f4 9dbd
00000080: 2e88 e73c 8cc7 6ebe bf2c 563c 5c83 a93d
00000090: 70cf d5bd 5c89 57bd 8894 243d 9b54 8c3e
000000a0: 14fa bc3e 38ea 8b3c 95c9 ebbc 5476 f33e
000000b0: 4fc5 893d cc72 be3e 59d5 e13d 1812 cdbd
000000c0: a8f0 bb3d 69d7 3d3e b8c5 76bd 40af 093f
000000d0: 618b c03d c9d1 77be b824 bebc f57a 1dbe
000000e0: bc7c 4c3e 887e eabc 0881 76bd 4897 64be
000000f0: 55dc a6be 516a 0dbf 2a51 3bbf 887e 6abd
00000100: d8c9 7fbf 3eb3 053e 062c 07be 7fac b83d
00000110: d89e 6e3e 47aa e7bd 516f 433e 0356 9bbc
00000120: c1b9 39bf 2f4d 3cbf 9eeb 56bf 20f8 aebe
00000130: 7bf6 41be dc39 923d 7cf6 823d 258e e9bd
00000140: 4a84 26bc 3abd 813e 8a86 313d 14ad 0c3e
00000150: 341d 7abe 0b10 833e fdb9 b13c fec2 833d
00000160: 283a dbbb 46b7 fd3d f69e 0fbe 6b58 1b3d
00000170: 7bd4 c8bd 386e c0bc 5832 c13d cf4b 1e3d
00000180: 8d3e bf3d 33cf 9c3e 7982 663e 71ce ccbc
00000190: 3b50 da3d 5e84 06bd a349 143c d40f 2fbd
000001a0: f2ac b4bd b710 093c faa9 64bd 3fce 093e
000001b0: 465a 48be 23f7 a7bd 221b a43e 0840 023e
000001c0: 37b0 41be 7aeb 5ebe 7ca7 04be 8c12 11be
000001d0: d726 7bbe 1b8a a3be 48e1 65be 6c19 9abe
000001e0: a56b 0f3d cb7e 843d 347c 473c 5395 9fbd
000001f0: 2e4c 9ebe 6d25 23be e96d dcbd 5e18 02be
00000200: 2ea6 8ebe 566f 6cbe f3ed 043e fb37 34bd
00000210: 0c38 7c3c 7ba0 09be 8e3c 7ebd a930 59be
00000220: 3ecc 2abe 9a6b 2c3d 4fb5 f3bd 4b58 703b
00000230: df9d dbbd edc0 8bbe 45ee 9abe 1162 44be
00000240: 7a0e 9bbd 0656 51bd 8ea3 3b3c 3a61 80be
00000250: 86b8 b43d 0494 483d f8ac 6abe d483 8bbd
00000260: a5e7 35bd 50c1 0a3e ddc5 6b3d e551 a9bd
00000270: e3e4 4ebd ea37 5fbd 57d2 93be e69b 393d
00000280: 5594 7dbd fc07 3c3d 9f97 06be f457 f53c
00000290: 718b 25be f7be 203e 9bb8 333e 431d 65be
000002a0: c0f6 17be f218 1ebe f21f a0bd b4ee c33d
000002b0: 68cb 6bbd 0414 933e 4c4a 113e 29dd 1b3e
000002c0: 78f6 513e f4ac 81bd e92e b43d 73de 18bd
000002d0: 3aec 963c 80ba 86bd b207 acbc 99c5 eebd
000002e0: bb20 b2bd 7288 56bd 5c14 203e 8be8 373e
000002f0: 9b0e a23c e92d 2a3e d58a 21bd ea95 08be
00000300: 898f e53d d89a 70be 8d7c b5bd b3a0 55be
00000310: f993 a0be 53e3 b1bd 13f1 bbbe 4666 0abd
00000320: 4481 15bd b4cd 29be 50ff 593b 0fcb b5bd
00000330: b276 133b 35a9 f7bd dbcb 0a3e cece 943c
00000340: 91be 45be 446f 21be dd45 29be 9f56 26bd
00000350: 14b5 233d f66a 713d f159 85bd b940 5abd
00000360: 47e8 0abe c3ee fdbd 01bc d3bd 50de 43be
00000370: 25fd 3ebe 8668 3ebe df72 48be d12d c7bc
00000380: bc3c 69bd 32e8 f63c c80a 6ebe c25a bf3d
00000390: 6444 c83d f35a 2fbd a4cf 1d3e 5134 18be
000003a0: e7db adbc db9b 533e 8259 aebd 7780 743e
000003b0: b237 85be 59e4 69be 238a 0fbe 4fa1 cd3d
000003c0: 6d34 6e3d 8fe0 78be 8ff2 dfbd c35b 3dbe
000003d0: 1076 99bd 40dc 01be 07fc b63d 2019 dfbd
000003e0: a686 a6bd 7ad6 873c 706d 0a3d 2542 9a3c
000003f0: 7a2c 7ebd df3d 473d c260 5fbd 427b c6bd

fc1.bias f4 [64]
-0.022119634 -0.1637592 -0.01135352 0.21331029 -0.034904752 0.026174758 -0.25087097 0.38256416
-0.048673995 0.038448002 0.3031917 -0.15283862 -0.2740372 0.13746817 -0.27811533 -0.26873216
0.09324399 -0.10479204 -0.03271009 0.13141811 -0.348981 -0.01872406 0.014037237 -0.1899542
0.022222083 -0.13661654 -0.123290285 -0.01679965 -0.18791968 0.08931664 -0.03772072 0.27411687
-0.09688287 -0.046913404 0.07208304 -0.02506795 -0.3688348 -0.11156498 -0.14172779 -0.12264411
0.052163728 -0.023456328 -0.08904442 -0.14802131 -0.19713408 0.23915844 -0.028603436 -0.055264536
0.24570578 0.20750555 0.027983198 -0.20466825 0.30126184 -0.16457805 -0.0074905106 -0.18178158
0.050880782 -0.13151406 0.07384245 0.10441051 -0.037241507 -0.046712156 -0.22031848 0.31588432
00000000: 3c34 b5bc 7eb0 27be 1d04 3abc 036e 5a3e
00000010: 49f8 0ebd 726c d63c 2972 80be 73df c33e
00000020: 625e 47bd a77b 1d3d f13b 9b3e ba81 1cbe
00000030: 9b4e 8cbe 75c4 0c3e 2265 8ebe 4397 89be
00000040: b4f6 be3d 369d d6bd 04fb 05bd 7892 063e
00000050: a3ad b2be 3363 99bc 70fc 653c 5b83 42be
00000060: 160b b63c 35e5 0bbe 9e7f fcbd 6b9f 89bc
00000070: 046e 40be a4eb b63d 0b81 1abd 0c59 8c3e
00000080: 876a c6bd 4528 40bd 46a0 933d 4d5b cdbc
00000090: ead7 bcbe 2e7c e4bd 1721 11be d62c fbbd
000000a0: a2a9 553d 7c27 c0bc ec5c b6bd e692 17be
000000b0: 84dd 49be f3e5 743e c151 eabc 115d 62bd
000000c0: 4c9a 7b3e 567c 543e 053d e53c 8e94 51be
000000d0: fe3e 9a3e 2687 28be f572 f5bb f324 3abe
000000e0: 5e68 503d 9fab 06be b63a 973d 2dd5 d53d
000000f0: 8d8a 18bd 3f55 3fbd 2b9b 61be 97bb a13e

fc21.weight f4 [16, 64]
-0.0018077698 0.0041240416 -0.0027404453 -0.03650395 -0.008434681 0.03503748 -0.013503369 0.0018847537
-0.027964372 0.002197304 -0.0041717943 -0.0360308 -0.016484668 -0.0032031198 0.00972581 0.004805128
-0.0043123593 -0.068523526 -0.019432187 0.015916215 0.000384455 -0.00282141 -0.0037367574 -0.10833958
0.013045974 0.015927345 0.05102847 -0.025770342 0.0036894742 0.0060152663 0.037996065 0.0067607546
0.11271171 0.0053826408 -0.0036611785 0.00925828 -0.0077776397 -0.038179595 -0.005634288 -0.08816664
-0.008336837 -0.0019527001 -0.005845077 -0.03427316 0.015132866 -0.004676606 0.04499842 0.031321403
-0.0037668888 -0.00314337 0.0065176277 -0.011297049 0.001810841 -0.0063461857 0.02359399 -0.025044562
0.019173088 -0.007943727 -0.0075465026 0.0038799532 -0.013480081 0.015373159 -0.006893159 -0.004147805
-0.0067124437 0.0047385218 -0.0022102185 0.018767437 0.008062172 -0.039791156 -0.030684566 -0.020775631
0.009355398 -0.0017726461 0.026231306 0.004966338 0.013090547 0.00077650615 0.01871318 0.0005503398
0.009354586 -0.023166496 0.0094050905 -0.01225425 -0.0011927815 0.02321196 0.010153951 0.045642197
-0.015209593 -0.012226998 0.022351012 -0.07202187 -0.008691988 0.00097005296 -0.055085715 0.02009671
-0.03475837 -0.006618032 -0.0041991784 -4.8657555e-05 -0.011237182 -0.031166479 -0.030388571 -0.023552042
0.014994394 -0.0066351723 0.02821977 -0.0055806716 0.011583351 -0.021810394 -0.0015675111 -0.004451093
-0.013026413 -0.0029932684 0.004557202 0.017551176 -0.008038646 -0.018291764 -0.009835396 0.02411266
-0.011624343 0.019127127 -0.0041219764 0.004707714 0.0103687905 -0.004639907 0.005228323 0.03762024
0.006308242 -0.030609136 -0.0018573272 -0.022332747 0.0036107874 -0.054989245 0.00065957406 0.001603287
-0.0660628 -0.014656831 0.014120546 -0.032524552 0.0046456517 -0.000614437 0.025186563 -0.016236214
0.04139332 0.023548126 -0.00094521506 -0.015873931 0.0056935353 0.020095594 0.0068741385 0.09420511
-0.012521098 -0.015752401 -0.0014843098 0.10269824 -0.027701585 0.022302845 -0.04431964 0.015440573
-0.014181315 0.0201157 -0.0016953298 0.013428522 0.019947335 0.047803253 0.03492741 0.03761048
0.012630512 -0.0035303175 0.024311803 -0.010010751 0.0064886794 -0.018088281 -0.026034309 -0.048998404
-0.016989343 0.0019436057 -0.0046713077 0.026322106 -0.012224015 0.0044297953 0.014879085 0.011988433
-0.009522373 0.0015064126 -0.003635018 0.017398352 -0.029496564 -0.005838346 0.008035697 0.03260155
-0.00632234 0.0067105293 0.002831745 0.07855703 0.005536157 0.058119956 -0.002318497 0.0045257057
0.025030201 0.012765509 -0.008251334 0.060855918 0.032703456 0.00485546 -0.0199776 0.012313338
-0.00049966905 0.000689583 -0.0026667097 -0.002084686 0.0034159492 -0.021256676 0.003900284 -0.121460624
0.00034391298 0.013924076 -0.010187319 0.018569227 0.0028371967 -0.016331742 0.02992004 -0.006425859
-0.00030869272 0.008269117 0.00032809592 0.028017983 -0.014610118 0.008166065 0.092871316 -0.00022611996
-0.0114536015 0.0027913963 0.0060541676 0.028404983 -0.010405573 0.014741783 0.013877491 0.03322578
0.016023219 -3.6885467e-05 0.0070769046 0.015379664 -0.01025757 -0.019469455 0.019509297 0.0073652635
0.0049391477 -0.00845125 0.0054713585 -0.013285832 -0.00418304 0.007994402 0.0030619437 -0.012132461
00000000: b0f2 ecba f822 873b 0b99 33bb 2a85 15bd
00000010: 9e31 0abc 7683 0f3d 3c3d 5dbc d709 f73a
00000020: 8a15 e5bc a500 103b 8cb3 88bb 0895 13bd
00000030: db0a 87bc 6feb 51bb 0159 1f3c 5674 9d3b
00000040: b14e 8dbb 1056 8cbd 4030 9fbc b962 823c
00000050: ad90 c939 68e7 38bb 63e4 74bb 24e1 ddbd
00000060: c8be 553c 107a 823c 3b03 513d 531c d3bc
00000070: 1bcb 713b b61b c53b c3a1 1b3d 5289 dd3b
00000080: 66d5 e63d dd60 b03b 62f0 6fbb 0ab0 173c
00000090: 92db febb 3562 1cbd d59f b8bb b690 b4bd
000000a0: 3b97 08bc bef1 ffba 0f88 bfbb 0362 0cbd
000000b0: d7ef 773c 373e 99bb 4350 383d df4a 003d
000000c0: e8dd 76bb ff00 4ebb d391 d53b 4217 39bc
000000d0: be59 ed3a aaf3 cfbb 2f48 c13c 412a cdbc
000000e0: e110 9d3c 6826 02bc a748 f7bb d046 7e3b
000000f0: 8fdb 5cbc b4df 7b3c 02e0 e1bb 4fea 87bb
00000100: 0ff4 dbbb 9a45 9b3b 50d9 10bb 2bbe 993c
00000110: 3317 043c 0dfc 22bd 335e fbbc a831 aabc
00000120: 6247 193c 2258 e8ba 09e3 d63c aabc a23b
00000130: bc79 563c 728e 4b3a 624c 993c ae44 103a
00000140: fa43 193c aac7 bdbc cf17 1a3c 0dc6 48bc
00000150: 1b57 9cba 0227 be3c c25c 263c 50f3 3a3d
00000160: a831 79bc bf53 48bc 7819 b73c 3480 93bd
00000170: d768 0ebc 274b 7e3a 8fa1 61bd dba1 a43c
00000180: cb5e 0ebd 14dc d8bb 4399 89bb a715 4cb8
00000190: 281c 38bc d850 ffbc 74f1 f8bc 36f0 c0bc
000001a0: 0cab 753c dc6b d9bb 262d e73c 11de b6bb
000001b0: 18c8 3d3c b6ab b2bc f274 cdba 79da 91bb
000001c0: bc6c 55bc b62a 44bb 9554 953b 7cc7 8f3c
000001d0: 86b4 03bc 9cd8 95bc a424 21bc ea87 c53c
000001e0: 0774 3ebc 7eb0 9c3c a511 87bb 2b43 9a3b
000001f0: dce1 293c 5c0a 98bb 5a52 ab3b ae17 1a3d
00000200: 5fb5 ce3b 03c0 fabc 8f71 f3ba 2af3 b6bc
00000210: f6a2 6c3b 673c 61bd 44e7 2c3a 6225 d23a
00000220: ef4b 87bd 3423 70bc dd59 673c 7738 05bd
00000230: 8d3a 983b 2b12 21ba 0d54 ce3c cf01 85bc
00000240: 0b8c 293d 00e8 c03c 4fc8 77ba 0c0a 82bc
00000250: d690 ba3b 849f a43c 7440 e13b 9cee c03d
00000260: 4b25 4dbc 2e0b 81bc 2c8d c2ba 7453 d23d
00000270: 6fee e2bc 75b4 b63c 8388 35bd 75fa 7c3c
00000280: bf58 68bc aec9 a43c d435 deba 4e03 5c3c
00000290: 9868 a33c 58cd 433d 0b10 0f3d 720d 1a3d
000002a0: 35f0 4e3c e65c 67bb 8c29 c73c 2204 24bc
000002b0: fd9e d43b e02d 94bc e745 d5bc 8db2 48bd
000002c0: 3c2d 8bbc 96c0 fe3a c511 99bb 75a1 d73c
000002d0: 3c47 48bc d127 913b 68c7 733c 226b 443c
000002e0: ba03 1cbc d272 c53a 7b39 6ebb fd86 8e3c
000002f0: c7a2 f1bc 994f bfbb 28a8 033c 3489 053d
00000300: a22b cfbb 00e4 db3b cc94 393b 82e2 a03d
00000310: a768 b53b 310f 6e3d edf1 17bb 5f4c 943b
00000320: 230c cd3c 6d26 513c 9a30 07bc 0e44 793d
00000330: 0ff4 053d 8d1a 9f3b 10a8 a3bc e2bd 493c
00000340: 39fc 02ba 22c5 343a f7c3 2ebb 3a9f 08bb
00000350: 1ede 5f3b 7b22 aebc e89b 7f3b 59c0 f8bd
00000360: 384f b439 cf21 643c b6e8 26bc 7e1e 983c
00000370: 43f0 393b 25ca 85bc df1a f53c 0390 d2bb
00000380: 09d8 a1b9 317b 073c 4a04 ac39 f885 e53c
00000390: 475f 6fbc f6ca 053c 5133 be3d 9d1a 6db9
000003a0: e3a7 3bbc dcef 363b 0a62 c63b 91b1 e83c
000003b0: 237c 2abc 8587 713c 6a5e 633c c117 083d
000003c0: 2043 833c 78b5 1ab8 61e5 e73b fcfa 7b3c
000003d0: 5e0f 28bc 687e 9fbc f6d1 9f3c 4f58 f13b
000003e0: 93d8 a13b 1d77 0abc 1549 b33b d1ac 59bc
000003f0: e211 89bb f4fa 023c e4aa 483b 3bc7 46bc

fc21.bias f4 [16]
0.008930136 -0.00901983 0.002683577 -0.007924469 0.018115515 -0.009664984 -0.0125167 -0.0018047628
-0.09913374 -0.0020442866 0.008289465 -0.0032029408 0.010536067 -0.0034300764 0.0026595993 0.0015673013
00000000: b54f 123c e9c7 13bc f3de 2f3b a2d5 01bc
00000010: fd66 943c e259 1ebc d812 4dbc ca8d ecba
00000020: a106 cbbd 70f9 05bb 89d0 073c 6ee8 51bb
00000030: 789f 2c3c 22cb 60bb ac4c 2e3b e86d cd3a

fc22.weight f4 [16, 64]
0.0006266111 0.00098009 0.00096014846 0.0065148594 0.0067333863 0.009879396 0.023487832 -0.0061915456
-0.020255571 0.0039862287 0.009534923 -0.040597312 0.012360163 0.0011868799 0.01445923 0.002112932
-0.0067735333 0.021967866 -0.0019433813 -0.0028503 0.0056775073 0.0010485861 0.0058938093 -0.0813466
-0.010543299 0.0015491142 0.010640703 -0.106513925 0.010337805 -0.003499842 0.012404 0.011080983
0.054618713 -0.009045065 -0.0047700554 0.0071184062 -0.0061263246 0.05585196 -0.01014175 -0.040476516
0.0017193968 0.0010895315 -0.0039506834 -0.034917425 0.0028557032 -0.022400886 0.000370598 0.003295714
-0.0015786451 -0.0013049621 0.0044728285 0.009257969 -0.015306736 0.010053553 -0.0018357751 -0.0024502948
-0.027540196 0.0013739947 0.007343089 -0.00048752356 -0.00823208 -0.00715474 -0.009657821 0.028071444
-0.034416083 0.0008497101 0.00075899507 -0.007936494 -0.006955059 0.036191873 0.038343705 0.0152806
-0.012311062 -0.009300905 -0.020127753 0.08743439 -0.006299573 -0.00046626336 0.0028439963 -0.018045925
0.0019784407 -0.087959886 -0.006512897 0.0014509179 -0.00044453194 -0.005937647 -0.0036193987 -0.12883063
0.011706748 0.00849064 -0.012673682 0.014564587 0.012095614 0.0026389349 -0.021333888 -0.021589186
-0.070556164 0.016680248 0.00041555293 -0.0155587 -0.0037637788 0.0019044353 0.09015355 -0.019339936
-0.007778532 0.000944307 -0.0011837315 -0.012311682 -0.007506337 0.034897164 0.0072030565 0.028534167
0.007765895 0.0012644273 -0.00361954 -0.011638201 0.019063689 -0.00868315 0.006296723 -0.0001681697
0.041365243 -0.01087049 -0.006313805 -0.0019896994 -0.01817383 0.013920191 -0.004244494 -0.046101842
0.0011626221 -0.0022514563 -0.0010780707 -0.0051027047 0.004953249 -0.034185745 -0.028134117 -0.004133107
-0.021087961 0.004720344 0.008787679 0.014524404 -0.013205824 0.003296132 0.0012898938 -0.033649117
-0.00016725645 -0.099777006 0.00090854993 0.0016186017 -0.0014937205 -0.0012540555 0.004279187 -0.08669918
-0.007189525 -0.0019611355 -0.017565502 -0.06861562 -0.006566874 0.0006696576 0.023268031 0.012290956
0.0752907 0.00075191486 -0.0035774359 0.022338508 0.020874778 -0.0046643005 0.046144873 -0.0097290315
-0.004452938 -0.0007410257 -0.013601663 -0.021329844 0.020066459 -0.024746247 -0.0044893757 -0.06491846
-0.002675637 -0.002748724 0.005654811 0.0022321045 -0.019239191 -0.0073496597 0.007129266 0.000110793
-0.053405296 0.0010863147 0.005606003 -0.013079139 -0.036902264 0.006863846 -0.01235135 0.029476171
-0.017711917 -0.002863907 -0.0008893458 -0.013708368 -0.0009327616 -0.030397477 0.025691785 0.0015209981
0.027953448 0.0011603578 -0.001674778 0.0098297335 0.007459165 0.0008494196 0.009695678 -0.030574383
0.0009628552 0.082765564 0.0019505429 0.0011771809 -0.00049614767 0.012025075 -0.0012213147 -0.09676573
0.0008111672 -0.0041231923 0.005922411 -0.077272095 0.013520932 -0.0018903258 0.037875064 0.00013602752
-0.108187646 0.016289549 -0.0036259613 0.016379632 0.021187754 -0.03588527 -0.055699363 0.016064212
0.004001346 -0.00040159837 -0.0013529622 -0.051565066 0.0005884952 -0.004490886 -0.0103635015 0.0031513043
0.00117094 -0.0032899815 -0.00603817 0.0021482252 -0.0018483225 -0.015516937 0.011489068 -0.0058867116
0.0074754697 0.0035909947 0.00062464195 0.0069518066 -0.026775962 -0.004220779 0.008675414 0.0044048927
00000000: 2943 243a 5d76 803a 79b2 7b3a 9a7a d53b
00000010: bda3 dc3b 31dd 213c 8e69 c03c 73e2 cabb
00000020: 03ef a5bc e99e 823b 5e38 1c3c 5e49 26bd
00000030: 4882 4a3c 1591 9b3a 68e6 6c3c 1e79 0a3b
00000040: 84f4 ddbb f4f5 b33c 0eb9 feba 19cc 3abb
00000050: 620a ba3b b670 893a db20 c13b 0c99 a6bd
00000060: cdbd 2cbc a60b cb3a 5856 2e3c f923 dabd
00000070: e65f 293c 9b5d 65bb 263a 4b3c 038d 353c
00000080: dfb7 5f3d c131 14bc 204e 9cbb 8541 e93b
00000090: 56bf c8bb 06c5 643d 9529 26bc b4ca 25bd
000000a0: 625d e13a 9cce 8e3a bc74 81bb 9305 0fbd
000000b0: c026 3b3b 1082 b7bc d24c c239 e8fc 573b
000000c0: 8aea ceba 430b abba ce90 923b bdae 173c
000000d0: 1bc9 7abc a8b7 243c 649e f0ba 2095 20bb
000000e0: fa9b e1bc 9d17 b43a 4c9e f03b 4e9a ffb9
000000f0: d9df 06bc 4f72 eabb d63b 1ebc 16f6 e53c
00000100: e1f7 0cbd 14bf 5e3a 4cf7 463a 1208 02bc
00000110: 43e7 e3bb ee3d 143d 4a0e 1d3d 7b5b 7a3c
00000120: 56b4 49bc d362 18bc f5e2 a4bc cd10 b33d
00000130: a66c cebb cf74 f4b9 5762 3a3b 0cd5 93bc
00000140: baa8 013b 5024 b4bd 246a d5bb ba2c be3a
00000150: 1110 e9b9 9890 c2bb 6f33 6dbb 2dec 03be
00000160: a9cd 3f3c 531c 0b3c 46a5 4fbc 4ea0 6e3c
00000170: af2c 463c fbf1 2c3b 68c4 aebc cedb b0bc
00000180: c07f 90bd 04a5 883c 92de d939 ebe9 7ebc
00000190: bba9 76bb 3f9e f93a 6da2 b83d c96e 9ebc
000001a0: 0ee3 febb 5f8b 773a 7027 9bba f0b6 49bc
000001b0: b8f7 f5bb 54f0 0e3d 9e07 ec3b 7cc0 e93c
000001c0: 0d79 fe3b 24bb a53a ce35 6dbb 27ae 3ebc
000001d0: 742b 9c3c c543 0ebc be54 ce3b b656 30b9
000001e0: 9a6e 293d 241a 32bc 09e4 cebb 9e65 02bb
000001f0: 49e1 94bc 8311 643c 6515 8bbb 49d5 3cbd
00000200: 2063 983a 2b8d 13bb 0d4e 8dba 9734 a7bb
00000210: dd4e a23b 5a06 0cbd 8579 e6bc 046f 87bb
00000220: a9c0 acbc 1ead 9a3b 32fa 0f3c c4f7 6d3c
00000230: 3e5d 58bc eb03 583b a711 a93a a8d3 09bd
00000240: 9061 2fb9 e357 ccbd c12b 6e3a 4327 d43a
00000250: f1c8 c3ba 1f5f a4ba 6c38 8c3b 578f b1bd
00000260: 1b96 ebbb 6586 00bb 87e5 8fbc 5986 8cbd
00000270: ef2e d7bb f68b 2f3a 999c be3c 0260 493c
00000280: 0332 9a3d 271c 453a 6a73 6abb 3fff b63c
00000290: 9501 ab3c fdd6 98bb 6802 3d3d 8466 1fbc
000002a0: f4e9 91bb 6541 42ba 82d9 5ebc edbb aebc
000002b0: 6a62 a43c a4b8 cabc 9d1b 93bb f8f3 84bd
000002c0: bd59 2fbb f023 34bb fe4b b93b 8048 123b
000002d0: 829b 9dbc 6ad5 f0bb 9e9c e93b 8a59 e838
000002e0: 83bf 5abd ac62 8e3a 90b2 b73b e349 56bc
000002f0: d426 17bd 1dea e03b 515d 4abc 0378 f13c
00000300: 9518 91bc 63b0 3bbb fd22 69ba 1099 60bc
00000310: 9284 74ba 2104 f9bc 9477 d23c 3a5c c73a
00000320: a1fe e43c 2617 983a 3984 dbba e40c 213c
00000330: 036c f43b 96ab 5e3a 9fda 1e3c 2177 fabc
00000340: 1e68 7c3a fe80 a93d 5ca9 ff3a a34b 9a3a
00000350: e80f 02ba d204 453c 8514 a0ba 1c2d c6bd
00000360: 82a4 543a d81b 87bb c910 c23b d540 9ebd
00000370: e686 5d3c cfc4 f7ba e222 1b3d 9ca2 0e39
00000380: 7c91 ddbd a971 853c 89a1 6dbb 942e 863c
00000390: f191 ad3c 6ffc 12bd 0425 64bd 1899 833c
000003a0: b91d 833b 9f8d d2b9 e155 b1ba e435 53bd
000003b0: 3f45 1a3a 4828 93bb adcb 29bc 1d86 4e3b
000003c0: 3a7a 993a bb9c 57bb d7db c5bb 3dc9 0c3b
000003d0: 6943 f2ba c03a 7ebc a53c 3c3c 51e5 c0bb
000003e0: c9f4 f43b e556 6b3b 03bf 233a fbcb e33b
000003f0: 4359 dbbc 764e 8abb 5323 0e3c eb56 903b

fc22.bias f4 [16]
-0.0014519043 0.0054300143 -0.002942689 -4.4777553e-05 0.0012135336 0.0017471956 0.00074560463 0.0015123512
-0.41232327 -0.0016705275 0.0026551315 -0.0021966507 -0.00015537502 -0.0010995057 0.0003954451 0.0021169889
00000000: d34d beba 43ee b13b 21da 40bb 88cf 3bb8
00000010: 6e0f 9f3a 2802 e53a ae74 433a 163a c63a
00000020: 091c d3be 9af5 daba b701 2e3b aff5 0fbb
00000030: 2aec 22b9 4a1d 90ba be53 cf39 2ebd 0a3b

fc3.weight f4 [64, 16]
-0.011290529 -0.0066448776 -0.0032485907 -0.00092467247 -0.011557756 -0.0077593857 -0.007332121 0.0059619676
-0.8291405 -0.0165354 -0.01118393 0.015414137 0.009962735 -0.001134643 -0.0063666548 0.014456069
0.007148708 0.002005199 0.0018594897 -0.018870834 0.011682631 0.020977233 0.014654082 -0.009349562
-1.2542249 0.0052311476 -0.0012242622 0.000320333 -0.0073394063 0.0078119407 0.004024139 -0.010864258
0.0009731618 -0.024989258 0.003482605 -0.0040134736 0.026945442 0.040116284 -0.02582799 0.009285146
-0.007852567 6.648121e-05 0.013241664 0.0127387885 0.003115772 -0.013440035 -0.0057206745 0.022769134
-0.0040619513 0.0022375698 0.0040320107 0.009197435 0.0074277627 0.0066575566 0.012910596 0.0048667975
1.5469635 0.0047872327 0.0021949166 -0.006623735 -0.009707446 0.00048556342 0.011384595 -0.0066612945
0.025761787 -0.026751636 0.004751318 -0.0114371395 -0.0042116777 -0.002160409 0.0015727113 -0.007983234
0.01201847 -0.005660576 -0.012520377 -0.0052681356 0.02576916 -0.013521174 0.010572378 -0.0018996999
-0.007940721 0.011204793 -0.011914359 -0.004773858 0.010737199 -0.0032342672 -0.007618555 -0.0031202442
-0.5669021 -0.00032147567 -0.014510769 -0.014339407 0.0008707848 0.011939179 0.00024298891 0.008072697
-0.0026466185 0.0043541146 -0.00065113424 -0.004745414 0.00951635 0.0060459254 -0.0036661162 0.0014301622
0.0029918328 -0.005088267 0.0054041594 0.0021165365 0.011143256 -0.0023103086 -0.005347807 -0.00011438036
0.0036461798 0.027183259 -0.0009215238 -0.017707676 0.0073933564 0.030149493 -0.030411588 -0.012801278
0.003957291 -0.0030414541 -0.016210591 0.0053863665 0.034081027 -0.00010170983 -0.002262442 0.0069736317
-0.015198876 0.010218263 0.0104805315 0.026060984 -0.016172782 -0.0132465605 0.01534092 0.02710905
0.4392962 0.011521869 0.014618501 -0.0027717948 0.041703288 0.0060032536 0.001722343 0.00830681
-0.006214227 -0.00043631022 -0.021686215 -0.0042596213 0.015583901 0.049912184 0.020352144 -0.0027720057
0.012437877 0.0023735613 0.019034661 -0.0061364365 -0.010811751 -0.022010349 0.026299523 -0.015246658
-0.017278407 -0.012145004 0.00015233981 0.0034094695 0.010049976 -0.015811605 -0.014487881 0.002572878
-0.00077922404 -0.014971537 0.01047534 -0.0055960054 -0.0051626517 -0.0097626345 0.014582423 0.008532449
0.0094063375 0.00022176375 0.0025181035 -0.017909296 0.0031312655 -0.003929063 -0.0010928942 0.0033358256
-0.26048258 -0.0077700126 0.0110304495 -0.0057311617 -0.0035715462 -0.0004360583 1.3800331e-05 0.008344466
0.016729144 -0.005953318 -0.0018225607 0.005584711 -0.01374746 -0.005800638 -0.013311197 -0.013082741
-0.12159508 -0.006316254 0.0047017075 0.009244891 -0.0021926695 -0.023277828 -0.012756401 -0.0064004567
0.0053567067 -0.0056044864 -0.0030970166 -0.0008134669 0.0025140932 0.004310816 0.0024975447 -0.004155712
-0.0005659386 0.002680525 -0.00070144696 -0.000541255 -0.0020787227 0.001763632 -0.0011372988 0.0015325758
0.005961884 0.0067540375 0.015741337 -0.0049554952 0.011593815 0.0066358885 0.015481941 -0.00058220245
0.8072468 -0.004925747 0.012154094 0.013981587 0.00036263457 0.0011122911 0.007725135 -0.009122887
-0.0035962937 -0.0011773153 0.0004724958 0.00071892026 -0.00447782 0.0066344985 0.008728282 0.004903394
0.8001314 0.0016994223 0.0022534109 0.004335897 -0.005637215 0.003780648 0.0058509 -0.0019470619
00000000: e9fb 38bc 46bd d9bb 4fe6 54bb b865 72ba
00000010: be5c 3dbc 7242 febb 4a42 f0bb 9c5c c33b
00000020: 8d42 54bf 3f75 87bc cd3c 37bc 948b 7c3c
00000030: bd3a 233c 4db8 94ba 5f9f d0bb 26d9 6c3c
00000040: b63f ea3b a869 033b 1fba f33a 0297 9abc
00000050: 8268 3f3c 72d8 ab3c ad17 703c e82e 19bc
00000060: 718a a0bf 0c6a ab3b 6c77 a0ba 5ef2 a739
00000070: 677f f0bb 4ffb ff3b eddc 833b 0000 32bc
00000080: c81b 7f3a 46b6 ccbc 6b3c 643b 7583 83bb
00000090: b0bc dc3c f950 243d 3995 d3bc ba20 183c
000000a0: 0ea8 00bc d46b 8b38 90f3 583c 5ab6 503c
000000b0: fb31 4c3b 9833 5cbc 7f74 bbbb 5686 ba3c
000000c0: 1e1a 85bb 31a4 123b f51e 843b d7b0 163c
000000d0: 9764 f33b a227 da3b f786 533c a879 9f3b
000000e0: e602 c63f 38de 9c3b 97d8 0f3b eb0b d9bb
000000f0: fb0b 1fbc 3893 fe39 7486 3a3c fd46 dabb
00000100: 620a d33c 3f26 dbbc f2b0 9b3b d762 3bbc
00000110: 1d02 8abb a695 0dbb 6f23 ce3a 1ccc 02bc
00000120: 1ee9 443c 5a7c b9bb 4422 4dbc 53a0 acbb
00000130: d819 d33c ea87 5dbc c437 2d3c 5aff f8ba
00000140: cc19 02bc 4f94 373c 7234 43bc 066e 9cbb
00000150: 14eb 2f3c 00f6 53bb 12a5 f9bb 037d 4cbb
00000160: 7f20 11bf bc8b a8b9 94be 6dbc d5ef 6abc
00000170: 6145 643a 8c9c 433c d7ca 7e39 5843 043c
00000180: e472 2dbb f6ac 8e3b e1b0 2aba 6b7f 9bbb
00000190: 77ea 1b3c e61c c63b 3943 70bb 4874 bb3a
000001a0: a012 443b 7abb a6bb 6015 b13b 97b5 0a3b
000001b0: 3492 363c 8c68 17bb a83c afbb 7ddf efb8
000001c0: bff4 6e3b 6daf de3c 6a92 71ba b00f 91bc
000001d0: f843 f23b 12fc f63c b921 f9bc 74bc 51bc
000001e0: 2aac 813b 2253 47bb 13cc 84bc 1e80 b03b
000001f0: 8c98 0b3d 0d4d d5b8 7a45 14bb 1083 e43b
00000200: b504 79bc 806a 273c 89b6 2b3c d87d d53c
00000210: c87c 84bc 1a08 59bc 7b58 7b3c cc13 de3c
00000220: 6eeb e03e 39c6 3c3c 7082 6f3c 00a7 35bb
00000230: 11d1 2a3d f1b6 c43b 3ec0 e13a 4919 083c
00000240: b7a0 cbbb 91c0 e4b9 4aa7 b1bc 4b94 8bbb
00000250: 9e53 7f3c b870 4c3d 8ab9 a63c 8aaa 35bb
00000260: 3dc8 4b3c c08d 1b3b 94ee 9b3c 2914 c9bb
00000270: c523 31bc 0c4f b4bc 1972 d73c 1ecd 79bc
00000280: 728b 8dbc d7fb 46bc 68bd 1f39 6871 5f3b
00000290: a8a8 243c 5787 81bc 945e 6dbc bb9d 283b
000002a0: d744 4cba 2d4b 75bc c3a0 2b3c b25e b7bb
000002b0: 762b a9bb 75f3 1fbc 1deb 6e3c afcb 0b3c
000002c0: 0a1d 1a3c 4189 6839 c406 253b 84b6 92bc
000002d0: eb35 4d3b 5fbf 80bb 723f 8fba de9d 5a3b
000002e0: f95d 85be 979b febb 0fb9 343c 78cc bbbb
000002f0: 9a10 6abb c19e e4b9 f887 6737 3ab7 083c
00000300: 8f0b 893c 0d14 c3bb fde2 eeba f4ff b63b
00000310: 073d 61bc 4713 bebb 3517 5abc fe58 56bc
00000320: d706 f9bd 94f8 cebb c810 9a3b e277 173c
00000330: e4b2 0fbb 25b1 bebc 3900 51bc ecba d1bb
00000340: 5087 af3b d7a5 b7bb 51f7 4abb d73e 55ba
00000350: 7cc3 243b bf41 8d3b d9ad 233b a42c 88bb
00000360: 7f5b 14ba bfab 2f3b 4fe1 37ba 02e3 0dba
00000370: 2e3b 08bb ac29 e73a 6a11 95ba b6e0 c83a
00000380: e85b c33b f950 dd3b faf3 803c b561 a2bb
00000390: fcf3 3d3c de71 d93b f8a7 7d3c f29e 18ba
000003a0: baa7 4e3f 2968 a1bb f721 473c 0713 653c
000003b0: fd1f be39 4cca 913a 2123 fd3b 2978 15bc
000003c0: ccaf 6bbb 2550 9aba 50b9 f739 ec75 3c3a
000003d0: adba 92bb 3566 d93b 1101 0f3c a6ac a03b
000003e0: 69d5 4c3f 26bf de3a f6ad 133b 2414 8e3b
000003f0: 63b8 b8bb c0c4 773b e8b8 bf3b 8e34 ffba

fc3.bias f4 [64]
0.048474513 -0.5747281 -0.3211162 0.78635836 -0.2822154 -0.5943648 -0.14884818 -0.3276449
-0.59634113 -0.42219976 -0.22210735 0.5353162 0.18892744 -0.06596489 -0.12158405 0.64271355
-0.27131185 -0.4206449 -0.26073152 -0.38174698 -0.51473606 -0.6552791 -0.28343615 0.3415744
-0.34434098 -0.82205343 -0.6300587 -0.39585146 0.006889507 -0.5245545 -0.35046554 0.6658314
0.075042844 -0.3497404 -0.20988822 -0.1007301 -0.24086913 -0.24384066 -0.27134606 -0.5860499
-0.20360084 -0.28861916 -0.4728177 -0.09985934 0.73825 -0.35705444 -0.494183 0.36891824
0.5197592 -0.36060995 -0.4018975 -0.13817514 -0.48233393 0.16704424 -0.26571867 -0.42403895
-0.12113256 -0.24547213 -0.40109986 -0.27497345 -0.24850522 -0.6257192 -0.26300305 -0.46715584
00000000: 368d 463d 6121 13bf 5869 a4be c84e 493f
00000010: 897e 90be 4b28 18bf a86b 18be 13c1 a7be
00000020: d0a9 18bf 912a d8be 1c70 63be 7c0a 093f
00000030: 3276 413e 9a18 87bd 0f01 f9bd e088 243f
00000040: 63e9 8abe c55e d7be 9a7e 85be 5774 c3be
00000050: bec5 03bf 5fc0 27bf 8b1e 91be d7e2 ae3e
00000060: 764d b0be 1872 52bf 874b 21bf 0bad cabe
00000070: 60c1 e13b 3449 06bf 3870 b3be ed73 2a3f
00000080: 10b0 993d 2c11 b3be f0ec 56be 954b cebd
00000090: 66a6 76be 5eb1 79be dfed 8abe 5e07 16bf
000000a0: bd7c 50be e4c5 93be 2915 f2be 0e83 ccbd
000000b0: f4fd 3c3f d7cf b6be 8e05 fdbe dae2 bc3e
000000c0: f00e 053f dea1 b8be 82c5 cdbe c97d 0dbe
000000d0: 79f4 f6be a50d 2b3e 470c 88be a21b d9be
000000e0: 5914 f8bd 0c5d 7bbe f65c cdbe 52c9 8cbe
000000f0: 2778 7ebe 222f 20bf 56a8 86be 0d2f efbe

fc4.weight f4 [38, 64]
0.00789994 -0.028218055 -0.033432346 -0.0049127913 0.0017309271 0.004521384 -0.021884102 -0.0128606325
-0.010538336 0.015549014 -0.017084677 0.0012108989 0.0056315786 -0.0018602436 0.015267678 0.0021496366
-0.026391413 -0.080771804 -0.0019056196 0.00035662073 -0.008532062 0.028860653 0.0076313918 -0.029921116
-0.027834231 0.05420292 0.02173994 -0.085008316 0.0039344504 -0.056000076 0.010671931 -0.0016487768
0.036738534 -0.03427297 0.0032037739 0.0014723059 0.006732639 -0.011648801 0.013121829 -0.0023315072
0.035820562 0.018674586 -0.03298113 -0.008378448 0.016698806 0.0031238669 0.020969875 -0.030459238
-0.00979179 -0.0090440465 -0.0035931447 0.0010722548 0.021153148 0.009356727 0.0013145023 -0.014192132
-0.00093194214 -0.021773405 -0.04551327 0.0041040047 0.0062294467 0.009321306 0.018906211 -0.07417859
0.00046075953 0.0010921566 -0.0012066131 0.00063105114 -0.001140546 0.0003266977 -0.00068732304 -0.000865348
-0.00035781326 -0.0022019928 -0.002647181 -0.0002532333 0.0005140682 -0.0005491834 -4.2274038e-05 0.00073517853
0.008903924 0.0031140058 -0.000118009506 -0.0019722132 -0.005570886 -0.00015399858 -0.004094879 -7.717448e-05
0.0002186702 -0.0008076741 -0.004116951 -0.012724531 0.00044052125 -0.00032764403 -0.0001313763 -0.00046870034
-0.0002515132 -0.0022681374 0.0009896253 7.722456e-05 -0.00046714826 -0.00012618455 -0.002138382 4.571474e-05
-0.00016627203 -0.0026361418 0.0015061966 -0.0017110524 -6.234702e-05 0.00085544947 0.00038658478 -0.000706345
0.00041119586 0.0012985074 0.0015835534 -0.0030732916 0.0016164627 0.00043046472 0.008261003 -0.0015302537
-0.00079876435 0.00013092296 0.009197911 0.002668109 -0.0007659772 -0.00049135636 -0.0041396692 0.025753465
-0.00037270744 -4.7135163e-05 -0.0040032505 -8.757811e-05 -0.0024614402 -0.00015156672 0.0023147215 0.0005536653
7.18136e-05 0.0020174081 -0.00042655613 -6.493068e-05 -1.0369752e-05 -0.002627945 -5.1602998e-05 -0.00042726073
-0.002173331 -0.00016313266 -0.0010274033 -0.0012590342 -0.004128379 -0.00016026132 -0.0019089824 -0.00024093899
-3.075886e-05 0.00046513203 0.0044163875 -0.0023424583 -0.00024029597 -0.00015105048 0.002309658 0.00039994688
0.00014086146 0.0011993358 0.00044852908 0.00027774822 0.0010066247 -9.615607e-05 -0.001453352 7.8273726e-05
-0.0017210272 -0.0031731168 0.00067626324 -0.00060049555 -1.7992978e-05 0.00017503428 -0.0002543233 0.00018563424
2.4107205e-05 0.00096722564 -0.0002618316 -4.0989366e-05 0.03024659 5.5318822e-05 -0.0031886739 -0.0008483985
0.00015563105 0.00018919626 -0.0046865717 -0.0019074229 0.00023476912 -9.826374e-05 -0.0011682566 -0.019258147
0.00028898258 -0.00022239606 0.0008086136 0.0010386083 0.0011884182 -0.0026740858 -0.002318749 -0.0035870008
0.00072094944 -0.0039934353 -0.0030512407 5.6747056e-05 -0.00092671684 -0.0031430756 0.00025645416 0.00044948212
-0.0019105817 -0.00079956243 -0.0035402775 0.00018337466 -0.000713444 -0.000510087 -0.0012876245 0.000107095126
-0.0008335641 -0.0024234096 0.008292947 -0.004094894 0.00019735636 -0.00016233523 -0.002695817 -0.0010788833
-0.00041713926 -0.004510109 -0.0026475908 -0.0037979274 -0.0008970272 -0.0024450098 0.0026461992 0.0017226681
-0.0014790861 0.0017839639 -0.0021108163 -0.0038131976 0.0017459311 0.009172058 -0.0031755725 0.00035192393
-0.003311826 0.0003316736 0.006853014 -0.0041210316 0.013947521 0.00045655933 -0.003226388 -0.008595397
0.004390059 0.001591526 -0.03276469 -0.0044958936 -0.007035656 0.00042220787 0.003930554 0.004848209
00000000: c06e 013c 8d29 e7bc 5bf0 08bd 7bfb a0bb
00000010: 47e0 e23a 1e28 943b 4a46 b3bc 67b5 52bc
00000020: fca8 2cbc 4bc1 7e3c 2af5 8bbc 06b7 9e3a
00000030: 1b89 b83b 6bd3 f3ba 4825 7a3c ebe0 0c3b
00000040: ce32 d8bc b06b a5bd fcc5 f9ba d3f8 ba39
00000050: 10ca 0bbc 2d6d ec3c c110 fa3b 211d f5bc
00000060: 9d04 e4bc e203 5e3d f517 b23c d718 aebd
00000070: 90ec 803b 5660 65bd 53d9 2e3c c51b d8ba
00000080: 257b 163d d061 0cbd 68f6 513b 63fa c03a
00000090: 789d dc3b 9dda 3ebc f1fc 563c 33cc 18bb
000000a0: 95b8 123d 72fb 983c 3917 07bd c245 09bc
000000b0: efcb 883c cab9 4c3b 04c9 ab3c a785 f9bc
000000c0: be6d 20bc 7b2d 14bc f77a 6bbb e78a 8c3a
000000d0: 5e49 ad3c f54c 193c 614b ac3a 1e86 68bc
000000e0: 944d 74ba 245e b2bc 1f6c 3abd e37a 863b
000000f0: 6320 cc3b 64b8 183c 33e1 9a3c f2ea 97bd
00000100: 1992 f139 b226 8f3a 3827 9eba 206d 253a
00000110: 607e 95ba 9f48 ab39 782d 34ba 85d8 62ba
00000120: e298 bbb9 4f4f 10bb 547c 2dbb 66c4 84b9
00000130: 88c2 063a 13f7 0fba 674f 31b8 ffb8 403a
00000140: c4e1 113c 5914 4c3b df7b f7b8 3f40 01bb
00000150: fb8b b6bb ae7a 21b9 562e 86bb bcd8 a1b8
00000160: d64a 6539 17ba 53ba 7de7 86bb 8d7a 50bc
00000170: c3f5 e639 a3c7 abb9 0fc2 09b9 e5bb f5b9
00000180: 88dd 83b9 08a5 14bb 51b6 813a 9ff3 a138
00000190: 94eb f4b9 6850 04b9 1924 0cbb d4bd 3f38
000001a0: 4f59 2eb9 1fc3 2cbb 926b c53a 6445 e0ba
000001b0: 4dc0 82b8 3e40 603a 88ae ca39 032a 39ba
000001c0: c695 d739 ae32 aa3a 3c8f cf3a 4769 49bb
000001d0: 7ddf d33a ffaf e139 2859 073c cb92 c8ba
000001e0: 2b64 51ba 5d48 0939 d6b2 163c 71db 2e3b
000001f0: dccb 48ba 5ece 00ba 10a6 87bb eef8 d23c
00000200: f267 c3b9 ffb2 45b8 b32d 83bb 24aa b7b8
00000210: 1d50 21bb e2ed 1eb9 95b2 173b d923 113a
00000220: a29a 9638 7e36 043b 65a3 dfb9 652b 88b8
00000230: bff9 2db7 9a39 2cbb 4c70 58b8 f701 e0b9
00000240: 726e 0ebb 970e 2bb9 efa9 86ba 2d06 a5ba
00000250: 5a47 87bb d20b 28b9 d236 faba 91a4 7cb9
00000260: 1303 01b8 f7dc f339 58b7 903b ee83 19bb
00000270: f5f7 7bb9 4e63 1eb9 a25d 173b f6af d139
00000280: 36b4 1339 0833 9d3a 8e28 eb39 bc9e 9139
00000290: b8f0 833a 66a7 c9b8 677e beba e326 a438
000002a0: 1794 e1ba 11f4 4fbb 4247 313a 936a 1dba
000002b0: a0ef 96b7 6889 3739 b256 85b9 d0a6 4239
000002c0: d439 ca37 6a8d 7d3a 7146 89b9 ffeb 2bb8
000002d0: b2c7 f73c 2206 6838 12f9 50bb 0f67 5eba
000002e0: e430 2339 fc62 4639 d091 99bb 7e02 faba
000002f0: 5b2c 7639 f212 ceb8 3020 99ba 43c3 9dbc
00000300: 9682 9739 fd32 69b9 24f9 533a e921 883a
00000310: b3c4 9b3a b73f 2fbb 27f6 17bb e313 6bbb
00000320: 19fe 3c3a 5ddb 82bb 53f7 47bb b003 6e38
00000330: eaee 72ba 0ffc 4dbb b274 8639 78a8 eb39
00000340: 7c6c faba ba99 51ba 0004 68bb 4348 4039
00000350: 6b06 3bba 5cb7 05ba 82c5 a8ba 4298 e038
00000360: 8a83 5aba 11d2 1ebb 24df 073c 762e 86bb
00000370: 72f1 4e39 8838 2ab9 4eac 30bb 5169 8dba
00000380: 7cb3 dab9 89c9 93bb 3483 2dbb a6e6 78bb
00000390: 7a26 6bba 753c 20bb db6b 2d3b 26cb e13a
000003a0: e5dd c1ba e5d3 e93a 9f55 0abb d7e6 79bb
000003b0: bad7 e43a 6646 163c 441d 50bb 6e82 b839
000003c0: 380b 59bb 7ae4 ad39 408f e03b b809 87bb
000003d0: 2584 643c 5b5e ef39 cf71 53bb b5d3 0cbc
000003e0: 7cda 8f3b c09a d03a 4534 06bd 4a52 93bb
000003f0: 5c8b e6bb c85b dd39 e0cb 803b badd 9e3b

fc4.bias f4 [38]
0.017290972 -0.0004908116 0.00011406127 -0.00036763964 0.027217558 0.00029770297 0.001956012 -0.00026839314
0.1281078 0.00037268933 0.006729937 0.0011469498 0.0003623407 -0.00040197658 0.0012206717 0.0017223282
-2.376164e-05 -0.00017464769 0.041781787 0.16423783 0.021222768 0.2038806 0.20448902 0.16607717
0.16896392 0.27599522 0.06710396 0.039448943 0.3927268 0.1830482 0.11345234 0.08937039
0.071687065 0.028655164 0.16264679 0.23394713 0.18849075 0.22761837
00000000: cca5 8d3c cfa9 00ba 2e34 ef38 c2bf c0b9
00000010: 5bf7 de3c 0415 9c39 7030 003b 1eb7 8cb9
00000020: b12e 033e 8465 c339 ce86 dc3b 4055 963a
00000030: 8cf8 bd39 62c0 d2b9 f2fe 9f3a bfbf e13a
00000040: bc53 c7b7 a221 37b9 6123 2b3d f62d 283e
00000050: 5fdb ad3c 13c6 503e 9265 513e 2210 2a3e
00000060: e104 2d3e 3f4f 8d3e cd6d 893d 3795 213d
00000070: 7d13 c93e fd70 3b3e b359 e83d d307 b73d
00000080: abd0 923d 3cbe ea3c e18c 263e d68f 6f3e
00000090: b803 413e ca14 693e
